recommender.pth (torch, 144389 bytes, 7 tensors)

user_embedding.weight f4 [836, 32]
-0.44075623 0.3632761 0.15883462 -0.5827425 -0.38757485 0.7778992 0.25976476 0.675123
0.40505195 0.8692959 -0.0926498 -0.6924259 -0.015337844 0.08653313 0.8012365 -0.2024553
0.84097195 0.5525929 -1.4556726 -1.2851452 0.37966776 0.50690645 -0.22012675 -1.3353735
2.3923535 0.84222806 0.54837984 -0.62309384 -1.2398949 -0.67290825 0.79803973 -0.034419924
0.23545521 -0.52398485 2.1069813 0.62023 -0.3438718 -1.4574087 -0.18549503 0.8798313
0.78420913 0.34918758 0.55368304 -2.3747766 -0.4008904 1.7920586 0.4902998 -0.40707585
-2.3550436 0.5120266 0.63179713 1.1248963 -1.6654645 -0.55620867 0.1842773 -0.2609966
-0.2236379 0.49242675 -0.88939595 0.28423223 1.0784299 -0.39140812 0.23610514 -0.41587928
1.8531694 -0.3655539 0.7699741 -0.05217368 0.28633645 -0.17025198 -0.016104857 1.1613733
0.505539 -1.1353147 -0.21219732 0.29975384 0.73056215 -0.28426924 -1.3671416 -1.4930358
-1.3419008 -0.27162302 0.8543965 -0.39742908 -0.14732264 1.5229119 -0.98435646 -0.5610128
-0.052373383 0.67101955 0.055311244 0.08381401 0.95587015 -1.8326343 -2.9650998 0.035952177
0.6346973 2.2261288 -0.5686621 -1.3272402 1.5644994 -0.6881201 0.40739188 0.62947977
0.49153084 -0.5631407 1.2633817 0.8250372 -1.3050101 -0.5381751 -0.41990608 0.42987812
-0.3752113 1.2016106 -1.0847269 1.6816547 0.2352066 0.62845606 0.29187736 0.65911734
-0.4957441 1.3315288 -0.97587633 0.12713704 -0.794058 -0.28147846 -1.4774437 0.3734831
0.15519089 2.0293686 -0.06963063 0.8851909 1.2798994 -1.3120595 -1.1423354 -0.34944612
-0.14723247 -1.7061063 0.9406012 1.1686001 0.00957345 -1.0671643 -0.26848942 0.10419644
0.5753797 -1.2026601 -0.14114068 1.4060773 -1.8752825 -1.2701983 0.5451912 0.1836918
-0.0654591 -0.52895665 -0.34131944 2.1129165 -0.1934402 -2.2214859 -0.6567403 0.5135202
-0.83278716 -0.079978965 -1.1689771 1.6416583 0.19667116 1.6769515 -1.3605832 2.0069816
-0.964796 0.5189555 0.4001767 -0.78776187 -1.0109904 -0.26154754 1.5733778 -1.6454004
-0.3603048 -0.85589707 1.0874538 -0.5829769 -1.8747728 1.1458389 -0.13774662 -0.97928715
0.2647717 1.2547251 0.2528624 -0.53802466 -0.74353194 2.0074527 -0.34211132 0.5441626
-0.30436313 0.39550254 -1.7061557 -0.63934284 -0.4420746 0.9692867 -0.29059613 -1.8072772
-1.8365015 -1.1648668 -1.4255652 -1.8707316 -0.29449153 -0.7705229 -0.005848848 -0.79796976
-0.15136018 0.8860132 -0.25546524 -2.2925632 -1.0390207 -0.67167497 -1.4479955 0.9123824
-0.5460628 0.9105963 0.028258896 0.406933 -0.12911518 0.51131797 0.53108126 -0.38133517
0.19836357 1.354613 -1.2731652 1.1088111 0.18840277 -1.6027367 -0.361727 -2.1453369
-0.070162125 -0.7578079 -1.2037718 1.2529567 -1.5498805 -1.3928074 1.3026885 0.24798965
1.3354874 -0.7086635 -0.08325348 -0.67636395 -0.73672086 -0.6795028 -0.8937986 -1.5226244
1.0991076 -0.45597386 0.9409161 -0.648477 0.8461294 -1.3689349 1.249813 0.4316295
00000000: cdaa e1be 53ff b93e 8ba5 223e 9d2e 15bf
00000010: 3670 c6be 6724 473f e3ff 843e dcd4 2c3f
00000020: f862 cf3e 2d8a 5e3f 2ebf bdbd d342 31bf
00000030: 954b 7bbc 4838 b13d d61d 4d3f 7150 4fbe
00000040: f049 573f ba76 0d3f 7b53 babf a37f a4bf
00000050: d063 c23e 9fc4 013f e868 61be 85ed aabf
00000060: 521c 1940 429c 573f 9f62 0c3f 1483 1fbf
00000070: e0b4 9ebf b743 2cbf 554c 4c3f e8fb 0cbd
00000080: 2c1b 713e df23 06bf c8d8 0640 65c7 1e3f
00000090: f70f b0be 5e8c babf 69f2 3dbe a03c 613f
000000a0: eec1 483f b7c8 b23e 2cbe 0d3f 57fc 17c0
000000b0: 8241 cdbe 2d62 e53f 9308 fb3e 3f6c d0be
000000c0: 09b9 16c0 2d14 033f 75bd 213f 9afc 8f3f
000000d0: f12d d5bf b163 0ebf 30b3 3c3e 59a1 85be
000000e0: 5501 65be 5c1f fc3e 74af 63bf e386 913e
000000f0: fe09 8a3f a566 c8be 8cc5 713e 21ee d4be
00000100: a834 ed3f e129 bbbe 061d 453f 12b4 55bd
00000110: b19a 923e 8956 2ebe 55ee 83bc e1a7 943f
00000120: 016b 013f fe51 91bf 414a 59be 5679 993e
00000130: 1f06 3b3f bd8b 91be 7ffe aebf cc1b bfbf
00000140: 68c3 abbf 2c12 8bbe bbb9 5a3f d37b cbbe
00000150: bfdb 16be c7ee c23f c9fe 7bbf 899e 0fbf
00000160: 7985 56bd f0c7 2b3f 0b8e 623d aea6 ab3d
00000170: e8b3 743f c393 eabf 32c4 3dc0 9742 133d
00000180: 867b 223f e578 0e40 d793 11bf 02e3 a9bf
00000190: 8441 c83f a428 30bf ab95 d03e 9625 213f
000001a0: eea9 fb3e fd29 10bf 7eb6 a13f a335 533f
000001b0: 920a a7bf d8c5 09bf eefd d6be fc18 dc3e
000001c0: b21b c0be 60ce 993f 55d8 8abf 7640 d73f
000001d0: 00da 703e 7fe2 203f f370 953e eabb 283f
000001e0: 2cd2 fdbe 896f aa3f 08d3 79bf 3630 023e
000001f0: 6347 4bbf f21d 90be e01c bdbf 2d39 bf3e
00000200: 5cea 1e3e 2de1 0140 819a 8ebd df9b 623f
00000210: bed3 a33f 91f1 a7bf 0c38 92bf 9aea b2be
00000220: 1cc4 16be b161 dabf 3ecb 703f b094 953f
00000230: f6d9 1c3c d798 88bf 7277 89be f164 d53d
00000240: 164c 133f c4f0 99bf 2f87 10be 57fa b33f
00000250: 4209 f0bf dc95 a2bf a791 0b3f b419 3c3e
00000260: 6c0f 86bd b469 07bf 6cc1 aebe 063a 0740
00000270: 3015 46be d32c 0ec0 2220 28bf 0f76 033f
00000280: 8a31 55bf 03cc a3bd 0ba1 95bf dc21 d23f
00000290: 2a64 493e 59a6 d63f 9727 aebf 6372 0040
000002a0: dffc 76bf 45da 043f f6e3 cc3e c3aa 49bf
000002b0: 2268 81bf 8fe9 85be 7264 c93f 7b9c d2bf
000002c0: df79 b8be 121c 5bbf b031 8b3f f93d 15bf
000002d0: 8ef8 efbf d9aa 923f 730d 0dbe 90b2 7abf
000002e0: 2890 873e d59a a03f 2e77 813e fcbb 09bf
000002f0: 1c58 3ebf 1b7a 0040 3729 afbe 3d4e 0b3f
00000300: 7cd5 9bbe 4f7f ca3e 4f63 dabf f9ab 23bf
00000310: 9a57 e2be 2c23 783f 04c9 94be dc54 e7bf
00000320: 7b12 ebbf 5b1a 95bf ec78 b6bf 2274 efbf
00000330: 98c7 96be fd40 45bf b1a7 bfbb bf47 4cbf
00000340: 2afe 1abe c3d1 623f 57cc 82be 5bb9 12c0
00000350: a1fe 84bf e4f2 2bbf eb57 b9bf e591 693f
00000360: c6ca 0bbf d71c 693f 337f e73c 8659 d03e
00000370: c536 04be bce5 023f f1f4 073f 5d3e c3be
00000380: d21f 4b3e f563 ad3f 14f7 a2bf 86ed 8d3f
00000390: a8ec 403e 7a26 cdbf 4834 b9be 334d 09c0
000003a0: 29b1 8fbd b3ff 41bf 3215 9abf e360 a03f
000003b0: 7c62 c6bf 8347 b2bf 7fbe a63f 00f1 7d3e
000003c0: 40f1 aa3f f96a 35bf cd80 aabd 3026 2dbf
000003d0: bd99 3cbf e5f3 2dbf fccf 64bf 5be5 c2bf
000003e0: 8faf 8c3f 6875 e9be e1df 703f 9702 26bf
000003f0: f09b 583f 4239 afbf dff9 9f3f 8bfe dc3e

item_embedding.weight f4 [66, 32]
0.12609196 0.31172058 0.9167232 -1.8501474 1.2423733 0.09749234 0.6252739 -0.2439523
0.100229666 -1.6574038 1.3606595 -1.4630518 1.6349967 -1.490798 2.3095717 0.20614322
0.18111852 -0.40188953 0.5561028 -1.3633007 0.4118631 0.58480746 -0.2739823 0.6889288
-0.7348597 -0.10758164 0.4564712 -2.3704677 -0.03646563 -0.84341 -1.4158416 0.58109254
-1.3377117 -0.88004625 -0.4917661 -1.0679368 -1.3234303 1.6885538 1.4496356 2.1209388
-1.3407601 0.38506147 0.9103972 -0.36673507 0.62803537 -1.4352885 -1.0096682 -2.1007233
0.7328033 1.0649112 -1.0567414 0.94749343 -1.5003909 0.42479527 0.3380483 -0.53706515
-0.44534987 -1.7209654 0.19018726 -1.3586786 1.3842748 -0.10912153 0.36326376 -0.8905695
1.4248518 0.5539078 0.28749883 -0.18874653 0.88522005 -1.1109239 0.30889386 0.73941123
-0.51216274 1.0755435 0.788695 -0.5187981 -0.35129613 -0.24996448 0.4548393 -0.2023354
-1.0007504 0.71947193 -1.4626006 -0.22389875 0.31127623 -0.6197691 -0.60140157 -0.76922023
-0.07958216 0.4499978 -0.5633798 1.5014513 -1.4656205 -0.90008783 -1.5684482 0.35701877
1.1828668 0.7751165 -0.49705422 1.080398 0.42205742 1.587933 0.33316603 0.12212876
0.19624294 -0.50426453 -0.105966926 1.225222 -1.8915634 1.2260554 0.905254 0.6875152
-1.6663375 1.3080882 1.8760183 -1.376968 2.2586017 0.30809894 -0.5190329 0.28157595
-1.299258 1.0686985 -1.6093962 -0.7228101 -1.7894208 -1.582413 -1.0789511 1.1151339
1.2712578 1.3920169 1.0513372 0.85693413 0.3191737 0.42326197 0.5001253 -0.46587175
-0.9955815 -0.49137807 -1.1679666 0.53630537 -0.12523521 0.053632565 0.051992655 -0.7970454
-1.5990084 1.5846579 0.09989144 0.014252346 -1.4680678 1.6545608 1.4112813 0.43140152
-1.8318417 -1.0761932 0.7875185 1.008994 -0.20835803 -1.4498473 1.6844581 -0.105374165
0.061691303 1.3182054 -0.60080457 0.60817426 -0.85744226 0.45584545 -0.7047766 -0.45669305
1.4572306 -1.1931227 0.17796442 0.4669567 1.2538329 -0.98959637 0.74037373 2.1561522
-0.05013595 0.5569109 0.5358869 -0.098227166 0.24767092 -0.16835263 0.9280335 0.60536015
-0.83935547 -0.35098627 -0.05134439 2.3897395 -0.5694977 1.1719114 1.4280704 0.958607
-1.586998 -1.4693904 -0.523071 0.06853658 1.6895473 -1.3904278 0.024633631 0.83589095
-0.7644991 2.316898 -0.2447972 0.68361145 1.0294178 -1.7988107 0.5475188 -1.2893119
-0.6392327 0.3036396 1.7990288 -0.42056674 0.04103944 0.08544978 0.50850755 -0.63054645
2.809264 -0.779572 -1.1066327 -0.4028893 -0.3951141 -0.26557294 0.94321036 1.0239365
-0.099318996 -0.22608548 0.15274507 1.5998205 0.482723 0.21119587 -0.12149632 1.8636074
1.3970337 -1.231104 -1.589153 0.5867611 0.9114808 1.0311157 0.30460402 0.3115012
-0.9284062 0.7880111 -0.87893647 -0.47158077 0.03546112 -1.6346109 -0.19144852 0.027469037
-0.021171654 -1.4046195 -0.19622697 -1.9066718 0.039696842 -1.2016112 -1.7499726 0.29980367
00000000: 401e 013e d799 9f3e 5fae 6a3f a1d1 ecbf
00000010: 1706 9f3f 10aa c73d f311 203f a2ce 79be
00000020: 3645 cd3d cf25 d4bf 172a ae3f 4845 bbbf
00000030: 9247 d13f 78d2 bebf 06d0 1340 3517 533e
00000040: 2277 393e 77c4 cdbe c15c 0e3f a380 aebf
00000050: b8df d23e f1b5 153f 6847 8cbe a35d 303f
00000060: c41f 3cbf c353 dcbd 98b6 e93e beb5 17c0
00000070: fc5c 15bd b8e9 57bf 4c3a b5bf 7bc2 143f
00000080: 233a abbf b64a 61bf c4c8 fbbe 27b2 88bf
00000090: 2a66 a9bf 8822 d83f a98d b93f 76bd 0740
000000a0: 079e abbf c726 c53e ca0f 693f b3c4 bbbe
000000b0: edc6 203f 89b7 b7bf cf3c 81bf 4072 06c0
000000c0: ff98 3b3f 034f 883f 4d43 87bf ee8e 723f
000000d0: cf0c c0bf c47e d93e ab14 ad3e 1a7d 09bf
000000e0: e604 e4be 9848 dcbf 73c0 423e 2ee9 adbf
000000f0: eb2f b13f 1c7b dfbd b5fd b93e 5dfc 63bf
00000100: 8b61 b63f e7cc 0d3f 0c33 933e c546 41be
00000110: c89d 623f c132 8ebf 5627 9e3e 0e4a 3d3f
00000120: 191d 03bf 69ab 893f eae7 493f f4cf 04bf
00000130: 16dd b3be b0f6 7fbe b2e0 e83e 0331 4fbe
00000140: 9718 80bf 502f 383f 7f36 bbbf b745 65be
00000150: 995f 9f3e 30a9 1ebf 74f5 19bf 9eeb 44bf
00000160: f9fb a2bd 1d66 e63e a939 10bf 8e2f c03f
00000170: 7499 bbbf 286c 66bf e9c2 c8bf 2acb b63e
00000180: 2e68 973f 096e 463f e47d febe 7b4a 8a3f
00000190: e917 d83e 6341 cb3f bd94 aa3e a51e fa3d
000001a0: e9f3 483e 7b17 01bf 3005 d9bd 13d4 9c3f
000001b0: c01e f2bf 62ef 9c3f babe 673f ff00 303f
000001c0: 8c4a d5bf 6f6f a73f 5e21 f03f 7d40 b0bf
000001d0: ee8c 1040 25bf 9d3e 57df 04bf b92a 903e
000001e0: 164e a6bf 1dcb 883f b200 cebf 150a 39bf
000001f0: be0b e5bf 828c cabf 121b 8abf b5bc 8e3f
00000200: 93b8 a23f 9c2d b23f 3892 863f 0960 5b3f
00000210: bc6a a33e cbb5 d83e 3608 003f be86 eebe
00000220: 6ede 7ebf e895 fbbe ee7f 95bf 4f4b 093f
00000230: a93d 00be d2ad 5b3d 40f6 543d 2b0b 4cbf
00000240: 4fac ccbf 12d6 ca3f e293 cc3d ac82 693c
00000250: a5e9 bbbf a6c8 d33f dea4 b43f a9e0 dc3e
00000260: ca79 eabf b3c0 89bf d09a 493f b726 813f
00000270: cf5b 55be 9994 b9bf 539c d73f 69ce d7bd
00000280: 05b0 7c3d f4ba a83f 54ce 19bf 4fb1 1b3f
00000290: 5681 5bbf 9364 e93e 3d6c 34bf acd3 e9be
000002a0: 8886 ba3f 3fb8 98bf 4e3c 363e f314 ef3e
000002b0: 997d a03f 3056 7dbf 2289 3d3f 66fe 0940
000002c0: 5b5b 4dbd b691 0e3f e22f 093f 532b c9bd
000002d0: 729d 7d3e a264 2cbe 9a93 6d3f e2f8 1a3f
000002e0: 00e0 56bf 79b4 b3be 7f4e 52bd 7ef1 1840
000002f0: 9aca 11bf 3101 963f 03cb b63f 4567 753f
00000300: c022 cbbf fc14 bcbf fbe7 05bf e85c 8c3d
00000310: 1643 d83f 8af9 b1bf 78cc c93c f3fc 553f
00000320: 37b6 43bf 0f48 1440 1eac 7abe 2901 2f3f
00000330: f6c3 833f 6e3f e6bf 312a 0c3f 2c08 a5bf
00000340: c1a4 23bf a676 9b3e 9346 e63f 8654 d7be
00000350: f918 283d 4b00 af3d 8d2d 023f 7e6b 21bf
00000360: fbca 3340 0892 47bf 24a6 8dbf 8247 cebe
00000370: 654c cabe 2df9 87be 3c76 713f 5a10 833f
00000380: c267 cbbd f482 67be 3469 1c3e ebc6 cc3f
00000390: 7827 f73e bb43 583e 10d3 f8bd b08a ee3f
000003a0: 00d2 b23f d194 9dbf 5e69 cbbf fa35 163f
000003b0: ce56 693f 99fb 833f 0ff5 9b3e 167d 9f3e
000003c0: 07ac 6dbf 18bb 493f fb01 61bf 0973 f1be
000003d0: ae3f 113d ee3a d1bf 150b 44be bf06 e13c
000003e0: 2d70 adbc 92ca b3bf b9ef 48be d20d f4bf
000003f0: 2899 223d 65ce 99bf 1aff dfbf de7f 993e

fc_layers.0.weight f4 [64, 64]
0.049669113 -0.12275955 -0.12470323 0.14284287 -0.11061703 0.09667237 -0.06719316 -0.124237575
0.106934026 0.06865322 0.017728174 -0.13555641 0.007230758 0.13822429 -0.061743353 -0.113909304
0.14310452 -0.06686186 -0.015096237 -0.10532098 -0.098675184 -0.18259504 -0.14825414 -0.007072029
-0.03624785 0.08886347 -0.15237509 -0.02281774 0.13177009 -0.11258558 0.00798943 0.022736035
-0.08838877 0.097838216 -0.033980414 -0.092697464 0.089970246 -0.17484254 0.14995055 -0.011269397
-0.003825076 0.09239169 0.07381792 -0.14316855 -0.056499105 0.02759928 -0.13205802 -0.02091231
0.03989169 -0.048631933 -0.12826906 -0.065319315 0.10064015 0.06134026 -0.16139983 0.14481072
0.12973106 0.09452707 0.14570236 -0.040087834 -0.123899974 -0.06050812 -0.11614632 0.11386518
-0.06599473 0.08639128 0.06253022 0.11488692 0.108883806 0.08769412 0.06475346 0.03119679
-0.089675255 -0.058932953 0.14516176 0.06136872 -0.02400994 0.01790119 -0.003063712 -0.13133189
-0.083287746 0.13128014 0.14329596 0.009714262 -0.02310489 -0.0816697 -0.11843569 -0.09511725
-0.14569199 -0.089934394 -0.11771628 -0.15228496 0.11280952 0.013917608 0.0220779 0.0848443
-0.025849776 -0.024113635 0.07564886 0.08229727 0.09027002 -0.041590076 -0.058946315 -0.036126453
-0.026227944 -0.05935311 -0.12086339 0.0026479915 0.027000308 -0.04837377 -0.060183927 -0.011355328
-0.11674933 -0.021308247 0.17144826 0.12672941 0.08737495 0.1837602 0.06920509 0.05010486
-0.061288662 -0.09177491 0.09351423 -0.14059053 0.028017374 -0.11941441 0.10157026 -0.07370736
0.06972639 0.0253471 0.0477481 -0.21141794 0.10527618 -0.011520425 0.11808444 0.013140832
-0.06040474 -0.07693077 -0.10721491 -0.015833171 -0.10241121 -0.14975208 -0.0527715 0.16855927
0.00064358086 0.12388692 0.05390497 -0.025424821 0.05379241 0.08727739 -0.09378539 0.04518469
0.19596669 -0.09039669 -0.07643124 0.13617453 0.082647055 0.07025272 -0.102608904 -0.048309207
0.09213421 0.10651135 -0.051743843 0.003946396 -0.057236042 0.03413081 0.06845513 -0.14439632
0.0048101507 -0.11376823 -0.006784317 0.16531378 0.12177408 -0.056592368 0.060693555 -0.07412875
-0.09131547 0.04442838 -0.05222682 -0.09127462 0.020917717 -0.089655146 0.033790458 0.03187456
0.042333372 0.12267424 0.11545734 -0.101158425 0.034383103 0.008314247 -0.047500946 -0.08047774
-0.081786275 -0.08247914 -0.08449175 0.046559136 -0.032419384 -0.02914856 -0.061374016 0.045896534
-0.11638298 -0.0010690175 0.053498313 -0.16959302 -0.16825923 -0.013396428 -0.04982783 0.015155089
0.016358832 -0.12216678 -0.13205983 -0.029885823 0.050373722 0.06551511 -0.12008817 -0.06967913
-0.17154443 -0.18192396 -0.13973631 -0.1579816 -0.1752423 0.12884778 0.009571237 -0.15230457
0.06152969 0.019866817 -0.1190171 0.16603784 -0.11342548 0.10193566 -0.11854474 0.026556795
-0.03435337 0.06527385 0.022780066 0.017694125 0.14021866 -0.048386987 -0.1304996 0.07434727
-0.14233994 -0.061838806 0.1245175 -0.049030125 0.09303762 -0.11985985 -0.01507463 -0.065756254
-0.08584445 0.06815715 -0.029461775 -0.08915805 -0.07820118 0.01981403 -0.124709584 0.06475414
00000000: d771 4b3d 5c69 fbbd 6864 ffbd 6745 123e
00000010: 2e8b e2bd 2afc c53d 919c 89bd 4570 febd
00000020: 3a00 db3d 0f9a 8c3d ad3a 913c 4dcf 0abe
00000030: ffef ec3b ab8a 0d3e 99e6 7cbd 4849 e9bd
00000040: fe89 123e dfee 88bd 3556 77bc 87b2 d7bd
00000050: 3716 cabd 32fa 3abe efcf 17be 7bbc e7bb
00000060: a078 14bd 0dfe b53d 3708 1cbe 45ec babc
00000070: bdee 063e 4593 e6bd 19e6 023c ec40 ba3c
00000080: 2c05 b5bd 675f c83d 0c2f 0bbd 2bd8 bdbd
00000090: 5242 b83d ec09 33be a38c 193e 47a3 38bc
000000a0: 20ae 7abb db37 bd3d da2d 973d c79a 12be
000000b0: 9b6b 67bd e317 e23c 383a 07be 4b50 abbc
000000c0: 7865 233d 4732 47bd f758 03be 22c6 85bd
000000d0: 6c1c ce3d ed3f 7b3d ff45 25be 4349 143e
000000e0: 38d8 043e 6997 c13d 0033 153e 2433 24bd
000000f0: 45bf fdbd 5dd7 77bd 1fde edbd 2632 e93d
00000100: 3f28 87bd e9ed b03d d80f 803d d549 eb3d
00000110: 79fe de3d fa98 b33d 769d 843d 6990 ff3c
00000120: a9a7 b7bd ae63 71bd 49a5 143e c45d 7b3d
00000130: 7eb0 c4bc 84a5 923c 8fc8 48bb de7b 06be
00000140: c492 aabd 4d6e 063e 2dbc 123e 9128 1f3c
00000150: 7746 bdbc 7242 a7bd 698e f2bd d5cc c2bd
00000160: 4830 15be 862f b8bd 3c15 f1bd 97f0 1bbe
00000170: ad08 e73d ae06 643c b6dc b43c d9c2 ad3d
00000180: e9c2 d3bc f589 c5bc caed 9a3d 798b a83d
00000190: 7ddf b83d 5b5a 2abd b171 71bd 55f9 13bd
000001a0: fcdb d6bc 3f1c 73bd 3a87 f7bd ed89 2d3b
000001b0: c02f dd3c 9323 46bd 6c83 76bd b30b 3abc
000001c0: 461a efbd a28e aebc 2290 2f3e 5bc5 013e
000001d0: a3f1 b23d a22b 3c3e 66bb 8d3d c13a 4d3d
000001e0: d209 7bbd 7cf4 bbbd 6384 bf3d f7f6 0fbe
000001f0: b184 e53c 8b8f f4bd 1204 d03d e2f3 96bd
00000200: b6cc 8e3d b9a4 cf3c 8393 433d f27d 58be
00000210: 0a9b d73d 2ac0 3cbc 41d6 f13d a54c 573c
00000220: f66a 77bd e18d 9dbd 7e93 dbbd 91b4 81bc
00000230: f8bc d1bd 9c58 19be ee26 58bd cd9a 2c3e
00000240: fbb5 283a 6db8 fd3d 75cb 5c3d b747 d0bc
00000250: 6e55 5c3d 7dbe b23d 8e12 c0bd 9513 393d
00000260: 7eab 483e e621 b9bd fb87 9cbd 5671 0b3e
00000270: dc42 a93d a8e0 8f3d 9e24 d2bd e0df 45bd
00000280: dcb0 bc3d 9f22 da3d 5af1 53bd c550 813b
00000290: 5770 6abd c0cc 0b3d 3432 8c3d a1dc 13be
000002a0: 789e 9d3b 51ff e8bd fa4e debb 0448 293e
000002b0: b064 f93d 66cd 67bd ce99 783d d0d0 97bd
000002c0: 9b03 bbbd 88fa 353d caeb 55bd 30ee babd
000002d0: a25b ab3c 1e9d b7bd dd67 0a3d e68e 023d
000002e0: c265 2d3d a23c fb3d e674 ec3d 262c cfbd
000002f0: 4cd5 0c3d 7b38 083c 5a90 42bd 83d1 a4bd
00000300: 907f a7bd d3ea a8bd 030a adbd cbb4 3e3d
00000310: 30ca 04bd f6c8 eebc 5263 7bbd 01fe 3b3d
00000320: 335a eebd 461e 8cba 0c21 5b3d cba9 2dbe
00000330: 264c 2cbe b17c 5bbc 4418 4cbd 0d4d 783c
00000340: f502 863c 9432 fabd b13a 07be 1dd3 f4bc
00000350: ad54 4e3d c92c 863d c9f0 f5bd efb3 8ebd
00000360: 58a9 2fbe 464a 3abe 0917 0fbe eec5 21be
00000370: b872 33be acf0 033e add0 1c3c bbf5 1bbe
00000380: 8e06 7c3d bcbf a23c 3dbf f3bd d305 2a3e
00000390: 9e4b e8bd a5c3 d03d 96c7 f2bd a38d d93c
000003a0: 1fb6 0cbd 4cae 853d 439d ba3c 45f3 903c
000003b0: 7b95 0f3e 6f31 46bd b0a1 05be 6243 983d
000003c0: 90c1 11be b04a 7dbd 0803 ff3d d0d3 48bd
000003d0: 828a be3d 1579 f5bd 95fb 76bc 37ab 86bd
000003e0: 37cf afbd fa95 8b3d d259 f1bc 7f98 b6bd
000003f0: f127 a0bd 0851 a23c bd67 ffbd d29d 843d

fc_layers.0.bias f4 [64]
0.02155778 0.18966053 0.15453097 -0.04573321 -0.019515065 -0.040390648 0.05267217 0.10358207
0.17290768 0.14875819 0.16268161 0.10614171 0.07833911 -0.061305806 0.05596824 0.025152296
0.008570768 0.019911956 0.15069254 0.20393649 0.09473046 0.03976688 0.15673202 0.011502696
-0.021845486 0.07068743 0.15360932 0.12981176 0.18993157 0.035678405 0.1275228 -0.0004796531
-0.03469624 -0.04849168 0.06662723 0.03825105 0.12533702 -0.010193014 0.11643102 0.16081323
-0.036642466 -0.020535283 -0.060540643 -0.023605011 0.07831148 0.17095809 -0.034205507 -0.0585147
-0.07464477 0.080625765 0.039713763 0.16172744 0.045358088 0.18632837 -0.04973979 0.12913959
-0.024066675 -0.06611665 0.13642523 0.120587006 0.18996753 0.009278483 0.07148997 0.11606939
00000000: f199 b03c 5f36 423e 5e3d 1e3e bf52 3bbd
00000010: 0fde 9fbc aa70 25bd c6be 573d d622 d43d
00000020: b60e 313e 1154 183e 0296 263e d360 d93d
00000030: 4170 a03d cc1b 7bbd f43e 653d 300c ce3c
00000040: 686c 0c3c 661e a33c 254f 1a3e bad4 503e
00000050: 0b02 c23d 99e2 223d 5c7e 203e ce75 3c3c
00000060: 4ef5 b2bc 92c4 903d c34b 1d3e 60ed 043e
00000070: 6c7d 423e 8523 123d 5695 023e f379 fbb9
00000080: a51d 0ebd 369f 46bd db73 883d 22ad 1c3d
00000090: 5958 003e 9900 27bc 6373 ee3d 39ac 243e
000000a0: 6916 16bd 9c39 a8bc 77f9 77bd 4c5f c1bc
000000b0: c561 a03d a30f 2f3e 131b 0cbd 1cad 6fbd
000000c0: 5bdf 98bd 1f1f a53d e6aa 223d e19b 253e
000000d0: 67c9 393d ddcc 3e3e f3bb 4bbd 2b3d 043e
000000e0: 7a27 c5bc 2b68 87bd 0eb3 0b3e 52f6 f63d
000000f0: d986 423e c704 183c 5569 923d cab5 ed3d

fc_layers.3.weight f4 [32, 64]
0.034154855 -0.06938569 -0.08943944 -0.11287554 -0.03004153 -0.037346154 -0.00979843 -0.020428583
0.079347946 0.010696414 -0.13425118 -0.073796436 0.012996656 -0.07776927 -0.040724095 0.06437664
-0.09785823 -0.038585536 -0.05662464 0.071653545 -0.12855949 -0.019170258 0.08987745 0.011240036
-0.00049496663 0.06906453 -0.049610093 -0.12409551 -0.10762416 0.031781893 -0.023297979 0.07713387
0.0418956 0.097228415 -0.105333924 -0.05623836 0.09681908 0.0077344934 -0.004001532 -0.14728379
-0.05529741 0.009699159 -0.03050545 -0.024989588 -0.00046830642 0.025712691 -0.06849946 0.039055917
-0.009734793 -0.047219235 0.01669349 -0.035539128 0.02048398 -0.034268305 -0.017520422 -0.09712983
-0.021925109 -0.12951125 -0.059040774 -0.061238322 0.007165896 -0.07511118 -0.10735338 0.004944698
-0.08018848 0.08080056 -0.10267694 -0.07193663 -0.010510049 -0.035055783 -0.04168788 -0.042847402
0.09322155 0.027671019 -0.08455473 0.02419665 0.006379645 -0.08160453 -0.14119542 -0.12734582
-0.03601289 0.05590464 -0.0462131 0.07161698 -0.11792093 -0.12808125 -0.024559736 0.05831816
-0.01598455 -0.030947793 -0.13161772 -0.016219942 0.018412124 -0.03726269 -0.1401123 -0.08129523
0.006304925 0.086452216 -0.07448154 -0.07608605 0.07909047 0.011724087 -0.004628958 -0.015971426
-0.09896649 -0.133496 0.02628068 -0.007148298 -0.12891154 -0.029256491 -0.026488913 0.091146424
-0.073229544 -0.014154115 -0.030617107 -0.13710271 0.052382056 -0.106026195 0.002363129 0.09509439
-0.003634234 0.023257095 0.058159668 0.037364 -0.15022044 0.06828769 -0.040570747 -0.14892666
-0.10338451 -0.12505399 -0.061919786 0.09487575 0.047389798 0.06933393 0.059613924 -0.1298611
0.0024326707 -0.035460692 0.0713639 -0.119583696 -0.028519655 -0.0113422135 0.08732824 -0.048248723
0.024661854 -0.14557366 -0.09118698 -0.0916191 -0.0488633 -0.045483578 -0.14114603 -0.14166029
0.025656525 0.005001712 -0.00035822182 -0.020107297 -0.023081452 -0.06436005 0.060321506 -0.13205943
0.06913697 0.08204795 0.07394719 -0.05826752 0.025933573 0.05737342 0.04949517 -0.11068102
-0.0970353 0.023457125 -0.037959248 -0.047431 -0.11785714 -0.038813513 -0.11045178 -0.10774851
-0.010210754 -0.049911175 0.053109363 -0.0024546601 -0.11982058 0.06533495 0.022808325 0.03856399
-0.009359941 -0.0050650053 -0.018656444 -0.019056031 0.022903144 -0.12540533 -0.07428965 -0.10617596
0.033047326 0.036069922 -0.025032282 -0.04615967 0.15000275 0.083906345 0.12585242 0.1956482
0.028405651 -0.021963524 0.09655495 -0.022300342 0.022073565 0.16339198 -0.011250887 0.1494314
0.048384625 0.22206636 0.15196738 0.07087396 -0.0039124754 0.098282434 0.07423927 0.06876629
0.18874024 -0.047013912 0.11151576 0.06500742 0.18093078 -0.03816459 0.10664241 0.059883714
0.1922939 0.06303161 0.0140933385 0.1021478 0.11100112 -0.009235482 0.08556947 0.07119051
-0.008026998 0.16578251 -0.022133809 0.1192138 0.0038940336 0.104685 -0.04893859 0.070676796
0.09027274 0.2283857 0.09602796 -0.014199613 0.07041936 0.11429531 0.06723851 0.020621916
0.07802475 0.040286865 -0.023465604 0.09074107 0.023470925 0.19674511 0.11565766 0.017743351
00000000: f6e5 0b3d 161a 8ebd 062c b7bd 4b2b e7bd
00000010: a819 f6bc 48f8 18bd 9889 20bc d859 a7bc
00000020: 2d81 a23d 0340 2f3c 2479 09be 9622 97bd
00000030: edef 543c 7f45 9fbd 4fce 26bd e6d7 833d
00000040: e569 c8bd de0b 1ebd 3def 67bd 18bf 923d
00000050: 19a5 03be f20a 9dbc ab11 b83d 2128 383c
00000060: a6c0 01ba b471 8d3d f433 4bbd c925 febd
00000070: 0e6a dcbd bb2d 023d 67db bebc 5df8 9d3d
00000080: b89a 2b3d b11f c73d 50b9 d7bd 325a 66bd
00000090: 1549 c63d a271 fd3b 491f 83bb 90d1 16be
000000a0: 897f 62bd 39e9 1e3c 91e6 f9bc f7b6 ccbc
000000b0: 0687 f5b9 6ca3 d23c 7249 8cbd 19f9 1f3d
000000c0: ae7e 1fbc f568 41bd c9c0 883c 7a91 11bd
000000d0: 05ce a73c ec5c 0cbd fd86 8fbc 01ec c6bd
000000e0: 499c b3bc 999e 04be bdd4 71bd 09d5 7abd
000000f0: e4cf ea3b e4d3 99bd 17dc dbbd 2207 a23b
00000100: dc39 a4bd c47a a53d 4a48 d2bd 8353 93bd
00000110: 5732 2cbc a796 0fbd e9c0 2abd c280 2fbd
00000120: f1ea be3d 55ae e23c 082b adbd 0e38 c63c
00000130: 570c d13b 4720 a7bd 8895 10be f166 02be
00000140: 4182 13bd 44fc 643d f349 3dbd ecab 923d
00000150: 8780 f1bd bb27 03be 8031 c9bc 06df 6e3d
00000160: 08f2 82bc 3a86 fdbc ccc6 06be afdf 84bc
00000170: 06d5 963c c3a0 18bd 9979 0fbe 1d7e a6bd
00000180: 8b99 ce3b dc0d b13d c789 98bd 01d3 9bbd
00000190: 2ffa a13d 6316 403c 84ae 97bb 82d6 82bc
000001a0: f1ae cabd 2db3 08be 954a d73c 453c eabb
000001b0: 6301 04be 4fab efbc 47ff d8bc faaa ba3d
000001c0: 5ff9 95bd a9e6 67bc bad0 fabc a764 0cbe
000001d0: 918e 563d 4324 d9bd bade 1a3b d9c0 c23d
000001e0: 542c 6ebb aa85 be3c d538 6e3d fe0a 193d
000001f0: 63d3 19be 6bda 8b3d 832d 26bd 3b80 18be
00000200: 42bb d3bd 270e 00be 9a9f 7dbd 384e c23d
00000210: ce1b 423d f3fe 8d3d bb2d 743d 4ffa 04be
00000220: 716d 1f3b 3b3f 11bd 3d27 923d 4ce8 f4bd
00000230: 0da2 e9bc b1d4 39bc 26d9 b23d 74a0 45bd
00000240: a807 ca3c 4311 15be 3dc0 babd cba2 bbbd
00000250: e224 48bd fd4c 3abd 9688 10be 650f 11be
00000260: a22d d23c 67e5 a33b b8cf bbb9 0fb8 a4bc
00000270: 5015 bdbc 34cf 83bd af13 773d 963a 07be
00000280: af97 8d3d c108 a83d a071 973d eca9 6ebd
00000290: a572 d43c 6400 6b3d 73bb 4a3d bbac e2bd
000002a0: 72ba c6bd 2829 c03c 287b 1bbd 0247 42bd
000002b0: 165f f1bd ebfa 1ebd 8b34 e2bd 40ab dcbd
000002c0: 024b 27bc a96f 4cbd 3489 593d 5dde 20bb
000002d0: 7e64 f5bd 55ce 853d 86d8 ba3c 46f5 1d3d
000002e0: 705a 19bc 58f8 a5bb 66d5 98bc 651b 9cbc
000002f0: 609f bb3c 416a 00be 2c25 98bd c872 d9bd
00000300: a25c 073d 0ebe 133d 8010 cdbc ec11 3dbd
00000310: 529a 193e 17d7 ab3d 75df 003e 0058 483e
00000320: f8b2 e83c d9ec b3bc 9abe c53d 35af b6bc
00000330: 9fd3 b43c 3a50 273e a455 38bc 8b04 193e
00000340: f52e 463d 5d65 633e 569d 1b3e 5e26 913d
00000350: 3934 80bb 4d48 c93d c20a 983d 57d5 8c3d
00000360: 1f45 413e a991 40bd 6062 e43d 9c22 853d
00000370: eb45 393e 7952 1cbd 5667 da3d a048 753d
00000380: b1e8 443e b716 813d bfe7 663c de32 d13d
00000390: 8e54 e33d 6b50 17bc 0c3f af3d 55cc 913d
000003a0: ab83 03bc e4c2 293e f651 b5bc 5d26 f43d
000003b0: 0b33 7f3b 1765 d63d d573 48bd ffbe 903d
000003c0: eae0 b83d f1dd 693e 4faa c43d 7ea5 68bc
000003d0: 0738 903d a913 ea3d 58b4 893d 4bef a83c
000003e0: 71cb 9f3d d703 253d f03a c0bc 74d6 b93d
000003f0: 1946 c03c 8d77 493e ecdd ec3d 815a 913c

fc_layers.3.bias f4 [32]
0.013546091 0.05240433 0.060106207 0.24386892 0.07949197 -0.13089015 0.008972144 0.07900549
-0.031287763 0.022732167 0.078166924 0.14570428 -0.021590661 0.17142434 0.08311636 -0.14994238
0.18513921 0.007928132 -0.14067231 0.010868415 0.0030701046 0.11531763 -0.094398335 0.005048453
-0.017693827 0.07018017 -0.03551745 0.1044959 0.07638761 -0.12289796 -0.14502552 -0.12510264
00000000: 6cf0 5d3c eca5 563d ed31 763d c6b8 793e
00000010: b0cc a23d 1108 06be e6ff 123c a1cd a13d
00000020: 9927 00bd cf38 ba3c fb15 a03d 8133 153e
00000030: e6de b0bc dd89 2f3e e938 aa3d 7f8a 19be
00000040: 2295 3d3e ffe4 013c 670c 10be 7011 323c
00000050: cf33 493b a62b ec3d ea53 c1bd 7e6d a53b
00000060: a5f2 90bc 9fba 8f3d bf7a 11bd f201 d63d
00000070: 1b71 9c3d edb1 fbbd 9281 14be e81a 00be

fc_layers.5.weight f4 [1, 32]
-0.05339975 -0.014431236 -0.07866629 0.11773671 0.19326858 -0.16014816 0.10132928 -0.124335386
-0.063282706 0.2345833 -0.020738596 0.22266069 0.22462863 0.17560035 -0.0039584083 -0.08225533
0.24174245 -0.03041043 -0.13658002 -0.1466305 0.16408929 0.2036863 -0.14382187 0.1838647
-0.14410827 0.19950444 -0.042142022 0.10433281 -0.09834199 -0.09867626 -0.12361791 -0.051598568
00000000: b2b9 5abd fe70 6cbc cb1b a1bd f21f f13d
00000010: 33e8 453e e1fd 23be ba85 cf3d 8da3 febd
00000020: 5d9a 81bd 9b36 703e fde3 a9bc 2a01 643e
00000030: 0c05 663e 94d0 333e 89b5 81bb 7c75 a8bd
00000040: 558b 773e 4b1f f9bc a2db 0bbe 4e26 16be
00000050: 0607 283e 2493 503e 0a46 13be 0747 3c3e
00000060: 1e91 13be e44a 4c3e 1d9d 2cbd 71ac d53d
00000070: 8667 c9bd c716 cabd 632b fdbd 0559 53bd
